…
    Starting now: 2023-10-19 20:52:07.439828
[*] Loaded dataset 'TPUGraphs' from 'PyG-TPUGraphs':
  Data(edge_index=[2, 434115], y=[1863504], op_feats=[266996, 140], op_code=[266996], config_feats=[334076672, 18], config_idx=[11017], num_config=[47], num_config_idx=[47], num_nodes=266996, partptr=[335], partition_idx=[47])
  undirected: False
  num graphs: 47
  avg num_nodes/graph: 5680
  num node features: 0
  num edge features: 0
  num classes: 467545516
TPUModel(
  (model): GraphGymModule(
    (model): CustomGNN(
      (encoder): FeatureEncoder()
      (pre_mp): GeneralMultiLayer(
        (Layer_0): GeneralLayer(
          (layer): Linear(
            (model): Linear(128, 256, bias=True)
          )
          (post_layer): Sequential(
            (0): Dropout(p=0.1, inplace=False)
            (1): PReLU(num_parameters=1)
          )
        )
      )
      (gnn_layers): Sequential(
        (0): SAGEConv(
          (model): SAGEConv(256, 256, aggr=mean)
        )
        (1): SAGEConv(
          (model): SAGEConv(256, 256, aggr=mean)
        )
        (2): SAGEConv(
          (model): SAGEConv(256, 256, aggr=mean)
        )
      )
      (layer_post_mp): MLP(
        (model): Sequential(
          (0): GeneralMultiLayer(
            (Layer_0): GeneralLayer(
              (layer): Linear(
                (model): Linear(128, 128, bias=True)
              )
              (post_layer): Sequential(
                (0): ReLU()
              )
            )
          )
          (1): Linear(
            (model): Linear(128, 1, bias=True)
          )
        )
      )
    )
  )
  (emb): Embedding(128, 128, max_norm=True)
  (linear_map): Linear(in_features=286, out_features=128, bias=True)
)
accelerator: cuda
benchmark: False
bn:
  eps: 1e-05
  mom: 0.1
cfg_dest: config.yaml
custom_metrics: []
dataset:
  cache_load: False
  cache_save: False
  dir: ./datasets
  edge_dim: 128
  edge_encoder: False
  edge_encoder_bn: True
  edge_encoder_name: Bond
  edge_encoder_num_types: 0
  edge_message_ratio: 0.8
  edge_negative_sampling_ratio: 1.0
  edge_train_mode: all
…
  (model): GraphGymModule(
    (model): CustomGNN(
      (encoder): FeatureEncoder()
      (gnn_layers): Sequential(
        (0): SAGEConv(
          (model): SAGEConv(128, 128, aggr=mean)
        )
        (1): SAGEConv(
          (model): SAGEConv(128, 128, aggr=mean)
        )
        (2): SAGEConv(
          (model): SAGEConv(128, 128, aggr=mean)
        )
        (3): SAGEConv(
          (model): SAGEConv(128, 128, aggr=mean)
        )
      )
      (layer_post_mp): MLP(
        (model): Sequential(
          (0): GeneralMultiLayer(
            (Layer_0): GeneralLayer(
              (layer): Linear(
                (model): Linear(128, 128, bias=True)
              )
              (post_layer): Sequential(
                (0): ReLU()
              )
            )
            (Layer_1): GeneralLayer(
              (layer): Linear(
                (model): Linear(128, 128, bias=True)
              )
              (post_layer): Sequential(
                (0): ReLU()
              )
            )
          )
          (1): Linear(
            (model): Linear(128, 1, bias=True)
          )
        )
      )
    )
  )
  (emb): Embedding(128, 128, max_norm=True)
  (linear_map): Linear(in_features=286, out_features=128, bias=True)
)
accelerator: cuda
benchmark: False
bn:
  eps: 1e-05
  mom: 0.1
cfg_dest: config.yaml
custom_metrics: []
dataset:
  cache_load: False
  cache_save: False
  dir: ./datasets
  edge_dim: 128
  edge_encoder: False
  edge_encoder_bn: True
  edge_encoder_name: Bond
  edge_encoder_num_types: 0
  edge_message_ratio: 0.8
  edge_negative_sampling_ratio: 1.0
  edge_train_mode: all
…
